assets/model/model.tflite (tflite, 13584 bytes, 5 tensors)

sequential/dense_1/BiasAdd/ReadVariableOp f4 [32]
-0.05494135 0.081041865 0.02571924 0.11545464 0.07569931 0.008859152 -0.053307462 -0.036245804
0.07094634 0.049231306 0.06542228 -0.072107404 0.018132655 -0.08429248 -0.08280587 0.08897223
-0.033134893 0.059490696 0.13127318 0.005097456 0.012502092 -0.085948065 -0.02826453 0.11353101
-0.0015087882 0.035187263 0.0180955 0.06926644 0.10861025 0.023321254 0.07444101 0.028925326
00000000: 2e0a 61bd 47f9 a53d 28b1 d23c 7b73 ec3d
00000010: 3d08 9b3d fa25 113c ed58 5abd 7b76 14bd
00000020: 514c 913d c4a6 493d 1efc 853d 0cad 93bd
00000030: ef8a 943c 89a1 acbd 2096 a9bd 1337 b63d
00000040: 74b8 07bd 84ac 733d 7a6c 063e 8f08 a73b
00000050: 93d5 4c3c 8a05 b0bd 048b e7bc f282 e83d
00000060: 88c2 c5ba 8520 103d 043d 943c 90db 8d3d
00000070: 0d6f de3d 370c bf3c 8774 983d cef4 ec3c

sequential/dense/BiasAdd/ReadVariableOp f4 [64]
-0.18876928 -0.066539064 0.007859153 0.020503724 -0.022564244 -0.0059095602 -0.13754044 -0.015892316
0.027876776 0.09837195 -0.058124214 -0.107235625 -0.1410905 0.10373297 -0.13360508 0.14869946
0.18289079 -0.15477106 0.085340396 0.28586355 0.104204535 0.1813623 -0.24805155 -0.09475225
-0.112044245 0.12217811 -0.03047736 -0.016059132 0.13314077 -0.10556284 -0.050408825 -0.054268908
-0.006717698 0.06544904 0.09958023 0.078189306 0.06826112 -0.16860339 0.1503657 -0.22754787
0.031779207 0.08133337 -0.09578516 -0.025631014 0.08679892 -0.105969496 -0.08491231 0.15725231
-0.0045276834 0.027646646 0.19378473 0.07909734 -0.057184134 0.025648128 -0.003629849 0.0072769057
-0.094702356 -0.06590084 -0.036734466 -0.030598935 -0.08342061 0.08929937 0.11439857 0.19184835
00000000: bc4c 41be a245 88bd adc3 003c 6df7 a73c
00000010: a6d8 b8bc fca4 c1bb 67d7 0cbe 9a30 82bc
00000020: d65d e43c 3c77 c93d a813 6ebd 5a9e dbbd
00000030: 077a 10be f471 d43d c5cf 08be ac44 183e
00000040: b947 3b3e 4e7c 1ebe f2c6 ae3d b55c 923e
00000050: 3069 d53d 0ab7 393e 3a01 7ebe 780d c2bd
00000060: 7477 e5bd 8438 fa3d a8ab f9bc 718e 83bc
00000070: 0e56 083e 5531 d8bd 7c79 4ebd 1349 5ebd
00000080: 2320 dcbb 250a 863d b8f0 cb3d b721 a03d
00000090: 7ccc 8b3d 5ea6 2cbe 77f9 193e 4f02 69be
000000a0: ea2a 023d 1c92 a63d 032b c4bd 22f8 d1bc
000000b0: a2c3 b13d 8906 d9bd 81e6 adbd c006 213e
000000c0: f65c 94bb 387b e23c 816f 463e c9fd a13d
000000d0: e939 6abd 061c d23c c3e2 6dbb 1c73 ee3b
000000e0: 4ff3 c1bd 05f7 86bd e176 16bd 9eaa fabc
000000f0: 6dd8 aabd 97e2 b63d cc49 ea3d e573 443e

sequential/dense/MatMul f4 [64, 11]
-0.34183037 0.013913717 -0.43340766 -0.15807737 0.38371274 -0.45288518 -0.402336 -0.21517646
0.43092915 -0.13994336 0.008380597 -0.24444537 0.100404106 -0.17606033 0.04721624 -0.3616893
-0.6156783 0.23385571 0.34598258 0.30169705 -0.31557918 -0.11913848 0.13900417 -0.16906624
0.39299315 -0.055464678 -0.40522638 0.14594172 0.029497506 -0.2704614 -0.1673025 -0.11548261
0.42709237 0.28203335 0.22101033 -0.46206805 0.18824719 -0.4434829 0.20947848 0.40613866
-0.16379496 0.004096496 -0.037411164 -0.17501716 -0.44293097 -0.10975043 0.12572373 0.23217282
0.13147357 -0.04802862 -0.1337091 0.11634398 0.49885145 -0.07787908 0.359079 -0.5103139
0.10878649 0.3483304 -0.37438467 -0.3034446 0.2604222 0.2761649 -0.028376807 0.15716352
0.42546853 0.5479034 0.54252696 -0.21052909 0.32332256 -0.047776494 -0.11427161 -0.41021007
0.3160512 -0.34549904 0.39765668 0.07261914 0.44337323 -0.15710577 0.21174337 -0.053884752
-0.61640203 0.33297005 -0.08343529 0.16038796 0.60331416 -0.51923394 -0.15621814 0.002186771
-0.2235135 -0.030187014 -0.2960141 -0.045539923 0.3601963 -0.55955 -0.32092056 -0.13363853
0.42463437 -0.20265871 0.098361075 -0.3519723 0.3026552 0.14915845 0.18314615 0.36374083
0.05057675 0.32143512 -0.2539158 0.21557386 0.09186741 0.51068735 -0.2360649 0.029058415
-0.40934977 -0.038179927 -0.34706476 0.21740143 -0.3140258 0.02539482 -0.12369504 0.22375238
0.3835286 -0.22370744 0.18398272 0.51026225 0.05591693 0.21527001 -0.07896945 0.1796068
-0.2727498 0.16424146 -0.2987652 -0.26768008 -0.19127952 -0.035335846 -0.15055612 0.5116498
-0.120350085 -0.46545258 0.0029179524 -0.10491916 -0.5933568 -0.11855734 -0.45492548 0.0888313
0.06776804 0.6153248 0.17054786 0.23589288 0.36975986 -0.1367344 0.28170198 -0.2539646
-0.2664572 0.62074316 -0.0762506 -0.15839314 -0.28561866 -0.3271543 -0.04714249 -0.12844263
-0.51312226 0.028721752 0.21186458 -0.36297086 -0.15658113 0.21084377 -0.00013495456 0.36750552
0.04273258 -0.30323347 0.13515641 0.19662029 -0.17195474 -0.116994865 0.32103682 -0.18148816
0.51325506 0.15433925 -0.3396672 0.024003418 -0.14175734 0.07237648 -0.26095438 0.30633488
-0.26006058 0.22394972 -0.06778446 0.24946806 -0.19986556 0.44072902 -0.29096168 -0.2364151
0.09409172 -0.14322005 -0.20367147 -0.32324433 -0.45278388 -0.3130232 -0.4782738 0.01191786
-0.0028717956 -0.08015975 0.14754176 -0.0578544 0.30139685 -0.022341382 -0.1143258 0.2722166
-0.019653704 0.1794296 -0.46844918 0.32587886 0.53333914 -0.22210121 0.09023526 -0.4386592
-0.42946953 -0.18360561 -0.06948697 -0.33268675 -0.18195769 -0.55470103 0.41998574 0.26162532
0.41486374 0.09182672 -0.36548814 -0.4847978 0.24514922 0.2326364 0.20618387 0.4955166
0.12417495 -0.25201312 0.26618043 0.0191111 0.27439573 0.40276578 0.7286284 0.40140972
-0.15085118 0.19078515 0.23760241 -0.11489375 -0.5224964 -0.16767927 -0.3159731 -0.09449416
-0.6251995 -0.1303208 -0.52016973 0.071544595 -0.20359561 0.42196688 0.41896817 0.23325068
00000000: 6404 afbe 5cf6 633c 9ce7 ddbe 09df 21be
00000010: ff75 c43e 91e0 e7be fcfe cdbe 3857 5cbe
00000020: bfa2 dc3e 504d 0fbe c64e 093c e34f 7abe
00000030: aba0 cd3d 2949 34be d165 413d 572f b9be
00000040: 189d 1dbf df77 6f3e a124 b13e 0978 9a3e
00000050: 9893 a1be e0fe f3bd 1c57 0e3e b31f 2dbe
00000060: 6636 c93e ee2e 63bd d579 cfbe bf71 153e
00000070: c1a4 f13c eb79 8abe 5951 2bbe 2682 ecbd
00000080: daab da3e ad66 903e 8850 623e 2f94 ecbe
00000090: dfc3 403e 3110 e3be 8781 563e 68f1 cf3e
000000a0: deb9 27be e63b 863b 733c 19bd b337 33be
000000b0: d9c7 e2be d5c4 e0bd b9bd 003e b6be 6d3e
000000c0: 02a1 063e a9b9 44bd 0aeb 08be c145 ee3d
000000d0: 7569 ff3e 117f 9fbd 34d9 b73e efa3 02bf
000000e0: 74cb de3d 5d58 b23e 59af bfbe 175d 9bbe
000000f0: 0f56 853e 7c65 8d3e 7a76 e8bc 79ef 203e
00000100: 03d7 d93e 6643 0c3f 0ce3 0a3f f094 57be
00000110: 898a a53e 49b1 43bd 3c07 eabd 0e07 d2be
00000120: 76d1 a13e 40e5 b0be a899 cb3e 58b9 943d
00000130: d101 e33e 56e0 20be 41d3 583e 42b6 5cbd
00000140: 86cc 1dbf 0d7b aa3e 1fe0 aabd be3c 243e
00000150: cc72 1a3f 84ec 04bf a6f7 1fbe ee4f 0f3b
00000160: b9e0 64be c24a f7bc 298f 97be 1288 3abd
00000170: a66b b83e ab3e 0fbf b34f a4be 8ad8 08be
00000180: ad69 d93e c485 4fbe 8871 c93d b735 b4be
00000190: 9ff5 9a3e febc 183e aa8a 3b3e 3d3c ba3e
000001a0: 9129 4f3d 2593 a43e 4001 82be 65bf 5c3e
000001b0: fb24 bc3d 68bc 023f ffba 71be ea0b ee3c
000001c0: 4b96 d1be 8e62 1cbd 79b2 b1be 7b9e 5e3e
000001d0: fdc7 a0be cc08 d03c d353 fdbd 581f 653e
000001e0: dc5d c43e 9013 65be f765 3c3e 8ca0 023f
000001f0: 2709 653d be6f 5c3e bcba a1bd d8ea 373e
00000200: dda5 8bbe ea2e 283e c1f7 98be 5d0d 89be
00000210: c7de 43be 52bc 10bd 622b 1abe 7bfb 023f
00000220: 1b7a f6bd cd4f eebe 1e3b 3f3b dbdf d6bd
00000230: 3be6 17bf 31ce f2bd feeb e8be 2fed b53d
00000240: f8c9 8a3d ed85 1d3f 19a4 2e3e e78d 713e
00000250: 2a51 bd3e 1a04 0cbe 3e3b 903e a607 82be
00000260: 146d 88be 06e9 1e3f 4629 9cbd d031 22be
00000270: 9c3c 92be c580 a7be 7c18 41bd 7786 03be
00000280: fb5b 03bf e149 eb3c 07f3 583e 51d7 b9be
00000290: ce56 20be 6ee7 573e 9782 0db9 af29 bc3e
000002a0: 5c08 2f3d 6b41 9bbe 7166 0a3e d456 493e
000002b0: e714 30be 019b efbd f05e a43e 08d8 39be
000002c0: af64 033f 1c0b 1e3e dce8 adbe d1a2 c43c
000002d0: d628 11be 1f3a 943d d09b 85be edd7 9c3e
000002e0: a926 85be 1353 653e 94d2 8abd 8e74 7f3e
000002f0: 8fa9 4cbe 3ca7 e13e eef8 94be cd16 72be
00000300: 29b3 c03d 47a8 12be 418f 50be 4880 a5be
00000310: 4ad3 e7be 9444 a0be 4ee0 f4be 2143 433c
00000320: bc34 3cbb cc2a a4bd 3015 173e bcf8 6cbd
00000330: b050 9a3e 4605 b7bc a523 eabd f95f 8b3e
00000340: ce00 a1bc 65bc 373e 92d8 efbe 98d9 a63e
00000350: ea88 083f 806e 63be 44cd b83d f097 e0be
00000360: 6ee3 dbbe 1c03 3cbe 2f4f 8ebd eb55 aabe
00000370: 1e53 3abe e300 0ebf 5f08 d73e c1f3 853e
00000380: 0569 d43e a60f bc3d 4321 bbbe 6b37 f8be
00000390: 6608 7b3e 3d38 6e3e dd21 533e 5ab4 fd3e
000003a0: 704f fe3d dd07 81be cd48 883e e28e 9c3c
000003b0: 997d 8c3e 5137 ce3e 6487 3a3f 9385 cd3e
000003c0: bb78 1abe 2f5d 433e 0c4e 733e 6a4d ebbd
000003d0: 53c2 05bf 1db4 2bbe 3ac7 a1be 2786 c1bd
000003e0: 130d 20bf d172 05be d829 05bf f985 923d
000003f0: 5e7b 50be 0b0c d83e ff82 d63e 44d9 6e3e

sequential/dense_1/MatMul f4 [32, 64]
0.31652158 -0.20095947 -0.09332248 -0.13138857 0.3147215 0.21533744 -0.38098037 -0.32907045
0.62139916 0.10794408 0.02091773 -0.00041703664 0.25671217 -0.9450599 0.07295503 0.22428055
-0.105110705 0.13429946 0.27445716 0.3873215 0.43396014 -0.28150064 -0.17837167 -0.39312
-0.2146884 -0.99999905 -0.0072183367 0.13679619 -0.25041616 -0.14188264 -0.11529614 -0.3232649
0.15337986 -0.12045072 0.3238238 -0.113981545 -0.12198714 0.368168 0.31743413 -0.3637922
0.23505233 -0.2116699 -0.1350844 0.1465101 0.40527305 -0.35620558 0.1402178 -0.30548126
0.15511157 -0.56085664 0.16227223 -0.27811274 -0.5132314 -0.3565206 0.094413154 -0.030438496
0.28343666 -0.03269456 -0.15076481 -0.20700523 -0.13682884 -0.080041155 0.41637975 -0.32461315
0.040568672 0.26777342 0.3470895 0.2385542 -0.18470694 -0.038060654 0.24604303 0.23581743
0.093254715 0.14715563 0.25265712 0.27200255 0.42457783 0.2656504 0.3096293 0.1357384
0.030579926 -0.053338565 -0.24632351 0.33198583 0.16539757 -0.16241059 0.03283259 -0.13458426
0.08886055 -0.0029558172 -0.18815202 -0.029305087 -0.23737456 0.102910034 0.44694188 0.26954076
-0.035354875 0.2664787 0.028986726 0.048176285 0.21536832 0.1342635 0.0489291 0.10091533
0.1395684 0.19032228 0.21077642 -0.07295899 0.086994715 0.1413986 0.16478786 0.04368438
0.16575523 -0.0694054 -0.29779238 -0.050683625 0.35473257 0.4292655 0.13252114 -0.22687581
-0.31090108 0.17108229 0.1838012 -0.13989197 0.11115712 0.031179441 0.24240063 -0.07436729
-0.051144943 -0.33670986 -0.059405357 -0.0878264 -0.10111499 -0.031028306 0.04082241 0.42131054
0.28768438 0.17937057 0.14297293 -0.025054185 -0.18570338 -0.2816035 0.29644927 0.28816086
0.16944978 0.33296368 0.07336915 0.09155354 0.10453725 -0.29490918 -0.041957576 -0.22448575
-0.13210753 -0.030362282 0.070133075 0.2366934 -0.20731884 -0.15050599 -0.016610786 -0.67884374
0.3693882 -0.09842606 0.040537447 0.12448281 0.22645247 0.11218553 0.2697363 -0.6288199
-0.18948764 -0.003858108 -0.4876692 0.3818321 -0.14846474 0.05666515 0.19384535 -0.09871653
-0.061185915 -0.6536126 0.3955367 0.19100784 0.2054069 -0.024423394 -0.039417006 -0.1829958
0.06609051 0.22707044 -0.028935406 0.1679991 0.1278678 0.0600654 -0.17477576 -0.15370211
-0.0037304193 -0.1937428 -0.46959132 -0.4197128 0.068862565 -0.26590785 -0.34590405 0.14430964
0.044131692 -0.027151076 0.0950811 -0.03580596 -0.5142319 0.20812777 -0.2097275 -0.024713174
0.26375952 0.016193958 0.08361956 -0.28276977 0.091392495 -0.23513803 -0.2680306 0.2514063
-0.1240251 0.19599214 -0.17758165 0.25142732 0.213365 -0.71004266 -0.24426506 0.061236076
-0.19209406 -0.1956714 0.07115389 0.2203459 0.04155131 -0.024428314 0.34396955 0.21583527
-0.47986504 0.14014882 0.15676293 0.040327936 -0.2097789 0.39633328 0.39865667 0.23458561
0.16538158 0.27350694 0.0068113897 0.06111667 -0.18042947 0.21354769 -0.17419745 0.2367059
-0.19162023 -0.2855385 -0.068990685 -0.06553531 0.33308518 0.4230735 0.19855222 -0.12151938
00000000: 1e0f a23e 52c8 4dbe db1f bfbd ba8a 06be
00000010: 2d23 a13e 6b81 5c3e dc0f c3be ec7b a8be
00000020: 0414 1f3f c911 dd3d a95b ab3c b6a5 dab9
00000030: c76f 833e 72ef 71bf 7269 953d cda9 653e
00000040: 4844 d7bd cc85 093e a685 8c3e 014f c63e
00000050: 0630 de3e da20 90be 10a7 36be 0647 c9be
00000060: 47d7 5bbe f0ff 7fbf cc87 ecbb 4d14 0c3e
00000070: 8c36 80be af49 11be 6220 ecbd fa82 a5be
00000080: 9c0f 1d3e deae f6bd 3ccc a53e 286f e9bd
00000090: 65d4 f9bd 8480 bc3e ba86 a23e f942 babe
000000a0: 8fb1 703e ffbf 58be 9153 0abe be06 163e
000000b0: f37f cf3e 9460 b6be 4195 0f3e 0a68 9cbe
000000c0: 91d5 1e3e 4d94 0fbf b12a 263e cb64 8ebe
000000d0: 2263 03bf de89 b6be af5b c13d 275a f9bc
000000e0: 9c1e 913e bbea 05bd 1762 1abe 2ef9 53be
000000f0: dc1c 0cbe 9eec a3bd ba2f d53e b233 a6be
00000100: 562b 263d 9919 893e b7b5 b13e 8d47 743e
00000110: d123 3dbe 7de5 1bbd b4f2 7b3e 207a 713e
00000120: 54fc be3d f7af 163e 465c 813e eb43 8b3e
00000130: 4462 d93e 5403 883e bb87 9e3e 02ff 0a3e
00000140: c182 fa3c 8a79 5abd 3b3c 7cbe 0cfa a93e
00000150: fb5d 293e f64e 26be 777b 063d 75d0 09be
00000160: 85fc b53d 62b6 41bb ecaa 40be 3911 f0bc
00000170: 5112 73be 7fc2 d23d 91d5 e43e 3f01 8a3e
00000180: 46d0 10bd e56f 883e 9275 ed3c 7f54 453d
00000190: 8389 5c3e 5f7c 093e e169 483d b2ac ce3d
000001a0: 05eb 0e3e d8e3 423e c6d5 573e 866b 95bd
000001b0: 492a b23d cbca 103e 26be 283e 64ee 323d
000001c0: bdbb 293e 6b24 8ebd 3e78 98be a299 4fbd
000001d0: 829f b53e b0c8 db3e 9fb3 073e 2252 68be
000001e0: 6d2e 9fbe 3230 2f3e 6236 3c3e d73f 0fbe
000001f0: 58a6 e33d 076c ff3c df37 783e e14d 98bd
00000200: 5c7d 51bd 3c65 acbe 0853 73bd 54de b3bd
00000210: 6015 cfbd 132f febc 6635 273d 04b6 d73e
00000220: 5e4b 933e ebac 373e 7f67 123e 6f3e cdbc
00000230: 0729 3ebe 552e 90be 33c8 973e d289 933e
00000240: 3e84 2d3e 377a aa3e 9142 963d 6c80 bb3d
00000250: a017 d63d 56fe 96be b5db 2bbd 98df 65be
00000260: 3247 07be 52ba f8bc eea1 8f3d c15f 723e
00000270: 644b 54be 3e1e 1abe 5813 88bc b4c8 2dbf
00000280: 7320 bd3e 9a93 c9bd 980a 263d d8f0 fe3d
00000290: 28e3 673e 87c1 e53d e01a 8a3e 57fa 20bf
000002a0: 0c09 42be 50d8 7cbb c7af f9be 7f7f c33e
000002b0: 2407 18be b719 683d 657f 463e e42b cabd
000002c0: 159e 7abd 2853 27bf c983 ca3e 8f97 433e
000002d0: 3056 523e 9213 c8bc ba73 21bd 4063 3bbe
000002e0: 765a 873d 2785 683e f209 edbc f507 2c3e
000002f0: c7ef 023e 2307 763d 6bf8 32be 1664 1dbe
00000300: 0d7a 74bb 8364 46be 466e f0be 99e4 d6be
00000310: d107 8d3d 1325 88be 561a b1be e8c5 133e
00000320: 6fc3 343d ef6b debc e1b9 c23d 45a9 12bd
00000330: b4a4 03bf 721f 553e cec2 56be 4873 cabc
00000340: 7d0b 873e 31a9 843c bb40 ab3d 33c7 90be
00000350: fd2b bb3d 06c8 70be 4f3b 89be 54b8 803e
00000360: df00 febd 2ab2 483e f7d7 35be 15bb 803e
00000370: 5b7c 5a3e 5bc5 35bf 9f20 7abe aed2 7a3d
00000380: 4eb4 44be 155e 48be 21b9 913d 5ba2 613e
00000390: b531 2a3d e31d c8bc c71c b03e ec03 5d3e
000003a0: dfb0 f5be 2c83 0f3e 7686 203e e82e 253d
000003b0: 48d0 56be 32ec ca3e ba1c cc3e 3637 703e
000003c0: ca59 293e 1a09 8c3e 1432 df3b 7955 7a3d
000003d0: 81c2 38be 3fac 5a3e d160 32be 0863 723e
000003e0: 1838 44be 1a32 92be fd4a 8dbd 6037 86bd
000003f0: 248a aa3e 179d d83e 4651 4b3e 27df f8bd

sequential/dense_2/MatMul f4 [1, 32]
1.5511198 -0.5291294 0.76252556 0.66463405 1.4729695 1.2081717 0.7208277 1.1831871
0.8457767 0.6586999 -0.44654953 0.29546848 -0.79676694 1.5581106 -0.6704087 1.4287401
1.1092839 -0.4700244 1.3268063 1.3725189 0.8177315 0.3519248 0.65571326 -0.65032727
1.0905 1.2741717 -1.0833236 -0.83945733 -0.93959975 -1.1800473 0.7433063 -0.66619664
00000000: 188b c63f 0675 07bf e034 433f 7525 2a3f
00000010: 448a bc3f 5fa5 9a3f 2a88 383f ad72 973f
00000020: d284 583f 8fa0 283f 24a2 e4be a547 973e
00000030: ebf8 4bbf 2b70 c73f e89f 2bbf f5e0 b63f
00000040: 04fd 8d3f 0aa7 f0be cad4 a93f b3ae af3f
00000050: da56 513f 7d2f b43e d3dc 273f d97b 26bf
00000060: 8195 8b3f 0f18 a33f 59aa 8abf ade6 56bf
00000070: 9c89 70bf ca0b 97bf 5249 3e3f dd8b 2abf
